…
2019-11-30 17:49:53.684076: I tensorflow/core/common_runtime/gpu/gpu_device.cc:1115] Created TensorFlow device (/job:localhost/replica:0/task:0/device:GPU:0 with 7394 MB memory) -> physical GPU (device: 0, name: GeForce GTX 1070, pci bus id: 0000:01:00.0, compute capability: 6.1)
2019-11-30 17:49:54.591041: I tensorflow/stream_executor/dso_loader.cc:152] successfully opened CUDA library libcublas.so.10.0 locally
_________________________________________________________________
Layer (type)                 Output Shape              Param #   
=================================================================
conv2d_1 (Conv2D)            (None, 28, 28, 16)        160       
_________________________________________________________________
max_pooling2d_1 (MaxPooling2 (None, 14, 14, 16)        0         
_________________________________________________________________
conv2d_2 (Conv2D)            (None, 14, 14, 32)        4640      
_________________________________________________________________
max_pooling2d_2 (MaxPooling2 (None, 7, 7, 32)          0         
_________________________________________________________________
conv2d_3 (Conv2D)            (None, 7, 7, 64)          18496     
_________________________________________________________________
max_pooling2d_3 (MaxPooling2 (None, 3, 3, 64)          0         
_________________________________________________________________
flatten_1 (Flatten)          (None, 576)               0         
_________________________________________________________________
dropout_1 (Dropout)          (None, 576)               0         
_________________________________________________________________
dense_1 (Dense)              (None, 512)               295424    
_________________________________________________________________
dense_2 (Dense)              (None, 25)                12825     
=================================================================
Total params: 331,545
Trainable params: 331,545
Non-trainable params: 0
_________________________________________________________________
Epoch 1/40

  1/857 [..............................] - ETA: 30:16 - loss: 3.2253 - acc: 0.0312
  9/857 [..............................] - ETA: 3:24 - loss: 3.2190 - acc: 0.0347 
 17/857 [..............................] - ETA: 1:49 - loss: 3.2207 - acc: 0.0349
…
